猫狗识别/catVsDog.pth (torch, 534150 bytes, 10 tensors)

weight f4 [32, 3, 3, 3]
000000 3d a6 0a 3e ca 2a 3d 3e 99 b2 4b bd 7c 3d 51 be
       0.13539977 0.18473354 -0.04973087 -0.2043361
000010 b7 25 3b bd 89 89 94 bd 73 20 0b 3e 59 ce b1 bd
       -0.045690265 -0.07252795 0.13586597 -0.08681936
000020 fb 42 f1 3c ab cc 90 bc db 36 76 3e 8a 47 9c bd
       0.029450884 -0.017675718 0.24044363 -0.076308325
000030 d8 a0 bd 3d f2 84 12 3e 18 37 a8 bd 4d f7 5f be
       0.09259194 0.14308527 -0.08213633 -0.21871682
000040 ae 8f 12 be 3a ae 00 be be f1 1a 3e 86 91 47 3e
       -0.14312622 -0.12566462 0.1513128 0.19489107
000050 2c 6e 6b bd 30 24 8e be ed d6 eb bd 0b d0 85 bd
       -0.057478115 -0.27761984 -0.11515603 -0.06533822
000060 b2 7a 68 be 8d fa 2d be cd c1 90 bd 55 02 18 3e
       -0.22703055 -0.16990109 -0.070682146 0.1484464
000070 d9 1b 13 be 71 bc 93 bd cc d5 35 3e c7 6f 02 be
       -0.14366092 -0.07213677 0.17757338 -0.12737952
000080 cb 1f 15 be c1 cb 45 bc b5 32 e6 3c 6b ac 83 bb
       -0.1456291 -0.0120725045 0.02810035 -0.0040183566
000090 2f 9c 23 3d 5e f0 3d be 16 e9 a5 bd f7 80 11 be
       0.03994387 -0.18548724 -0.08101098 -0.14209352
0000a0 2f 3f c2 bd 87 34 33 be 4e 47 a8 3d cb 87 29 3c
       -0.094847076 -0.17500506 0.08216725 0.010347317
0000b0 6f 9f c3 bd 10 b9 20 be 19 7a 2e bc b7 26 cf 3d
       -0.09551894 -0.15695596 -0.010649228 0.10114806
0000c0 d5 fd a7 bd 20 7f 30 be 63 0d a4 3d 51 ef 55 3e
       -0.082027115 -0.17235994 0.08010366 0.20892073
0000d0 a5 fd 5e 3e 8e 83 05 3e ae db 35 3e 19 7b d4 3d
       0.21776445 0.13038465 0.17759582 0.103750415
0000e0 d1 77 2b 3d ee e8 2a bd 40 f0 1e be 96 b0 49 3e
       0.041862313 -0.041726045 -0.15521336 0.19696268
0000f0 5b 14 6b be e3 98 63 bc 53 0a 07 be 25 43 69 3c
       -0.22956984 -0.0138914315 -0.13187532 0.0142372
000100 97 59 26 3e ad ed 74 bd 48 01 2b be 01 d1 0c be
       0.16245113 -0.059796978 -0.16699708 -0.13751604
000110 a8 9b 2c 3e 4f 43 84 be d3 30 f4 3d f1 6e 11 3e
       0.16856253 -0.25832602 0.11923375 0.14202477
000120 ab 3c 96 bd 53 01 be 3b d8 50 89 bd cc c3 c5 3c
       -0.0733579 0.0057984977 -0.06704873 0.024141215
000130 98 a9 c5 3d 40 4f 42 3e 30 89 df bd fb 10 37 bc
       0.09651488 0.18975544 -0.10914838 -0.011173482
000140 14 46 b1 bd dc 50 d4 bc 35 eb aa 3c 5f af c5 bd
       -0.086559445 -0.025917463 0.020864109 -0.0965259
000150 79 95 74 be 5d 0f 7e bd 92 1c 2b be 6b 51 fc bd
       -0.23885144 -0.06202637 -0.16710117 -0.12320217
000160 43 70 5c be 32 2b a8 bc 5d 9e 00 3e fa df 10 3e
       -0.215272 -0.02052841 0.12560411 0.1414794
000170 f0 60 a0 bc 06 17 6d be b7 9c ff ba 16 07 3e be
       -0.019577473 -0.23153314 -0.0019501661 -0.1855739
000180 9c bf 72 3d 06 3c 17 be e1 b4 ce bb 2e 82 17 3d
       0.059264764 -0.14768991 -0.0063081835 0.036989383
000190 69 87 5f bc c4 b5 1c 3d 5b f8 3c 3e 09 ad bd 3d
       -0.013643124 0.038259283 0.18454115 0.092615195
0001a0 cc ac fe 3d 75 81 7a 3d 96 a5 5e 3e ce 0b 2e 3e
       0.12435302 0.061158616 0.21742854 0.1699669
0001b0 b6 44 ac 3d 8f df dc bc f8 e1 ba 3d bc 1d 43 be
       0.08411543 -0.02696207 0.09125131 -0.19054312
0001c0 02 29 97 bd 88 09 64 bc be de 5c bd 08 8a c9 3b
       -0.073808685 -0.013918288 -0.05392336 0.006150488
0001d0 f1 7d 02 be 94 51 de bd 3d 98 65 3d 94 29 e7 bb
       -0.12743355 -0.108554035 0.05605339 -0.007054517
0001e0 b0 1c 57 be 15 9b 5d be 2d 26 44 bd 29 b0 9a 3d
       -0.21007037 -0.2164119 -0.04788797 0.07553131
0001f0 ed 8f 8d bd 7a 1b f1 3d ce 30 fc 3c ca ab 3f 3e
       -0.06912217 0.11772819 0.03078499 0.18717876
000200 94 12 4c 3e 67 42 6b 3b d7 f3 80 3d ce 6c 86 3c
       0.19928962 0.0035897733 0.06296509 0.016409304
000210 8b 0e 3e 3e 19 2a 8b 3c d6 00 29 be d5 dd 5d 3c
       0.18560235 0.016987847 -0.16504225 0.013541658
000220 02 2a 1f 3d 6a 41 1a 3e 2d d4 68 be 88 cc 8c 3d
       0.03885842 0.15064016 -0.22737189 0.06874949
000230 a1 8e 28 3e ad 4c 55 bd 31 d5 aa bc 37 ce 97 bd
       0.16460659 -0.052075077 -0.02085361 -0.07412379
000240 79 46 fc 3d c5 ea 88 3d a8 d8 47 3e ed 26 2a be
       0.12318129 0.06685404 0.19516242 -0.16616412
000250 1a f6 2c be 36 79 42 bd ca 55 7b be f7 82 c5 bd
       -0.16890755 -0.047478877 -0.24544445 -0.0964412
000260 91 aa 9e 3d d4 e2 12 3e 10 04 c3 bd 1c 41 28 3e
       0.07747377 0.1434434 -0.09522259 0.16431087
000270 4f 09 30 be 48 fe e1 3c b7 06 fe 3d 98 33 cf 3d
       -0.17191051 0.027587071 0.124036245 0.101172626
000280 32 55 d0 3a bf 27 94 bd a0 c5 5e 3d 10 da 6d 3e
       0.0015894531 -0.072341435 0.05438769 0.23227715
000290 e9 0f f8 bd 4a 7a c4 bd c9 70 1a 3e d3 c8 a1 bd
       -0.121124096 -0.09593637 0.15082087 -0.07899632
0002a0 8f 51 52 3d 28 92 8b bd 4b a6 55 be f2 68 93 bd
       0.05134731 -0.068149865 -0.20864217 -0.07197751
0002b0 92 64 1d be e5 35 2b 3e 6e 4d 8d 3d ff d9 e3 3d
       -0.15370396 0.16719778 0.06899534 0.11125564
0002c0 69 f3 0f be 99 35 5f be c6 92 71 be 22 0d de bd
       -0.14057697 -0.2179779 -0.23591146 -0.10842349
0002d0 76 b9 a7 bd d7 87 78 3d 05 bf 3b 3e 64 0f 08 3e
       -0.08189671 0.060676422 0.18334587 0.13287121
0002e0 8e 88 83 3c cf 32 da 3d 0e f5 62 3e e7 c0 45 bc
       0.016056325 0.10654222 0.22163793 -0.012069917
0002f0 ae 9a f1 bd ba 42 21 be 51 90 b4 3d 1c dc 2c 3e
       -0.11797081 -0.1574811 0.08816589 0.1688084
000300 6a d3 63 be 2a 68 3a be 02 01 1c bc fd 6d bb 3c
       -0.22248617 -0.18203798 -0.009521725 0.022879595
000310 2f e1 34 3e aa 24 88 bd 92 fe e7 bd d6 3e 07 3e
       0.17664026 -0.06647618 -0.11327852 0.13207564
000320 cd fa 2e be 68 1d 7a be 73 50 7f bc 83 4c a1 3d
       -0.1708786 -0.2442528 -0.015583145 0.078759216
000330 bd 69 2a be ec 96 59 bd 0e 26 9b bd 5f b2 ff 3c
       -0.16641898 -0.053122446 -0.07575618 0.031212984
000340 b9 01 13 3e 3d 0c a1 3d f0 ae c8 ba c9 4e de 3d
       0.14356126 0.078636624 -0.0015310925 0.10854871
000350 10 9b 36 be 77 e7 4a 3d 14 3b 65 3e 33 92 eb 3d
       -0.17832589 0.04953715 0.22385818 0.11502495
000360 f6 ec c9 bd a9 a5 67 3e 98 af 87 bd 90 dc c1 3d
       -0.0985965 0.22621788 -0.06625289 0.09465897
000370 a3 93 35 3e 9b 3e 9c 3c 41 2d 18 be 7b 18 20 bd
       0.177321 0.019072821 -0.14861013 -0.039085846
000380 ef 84 14 3e 23 b2 75 bd ba b8 97 bc cc b6 22 be
       0.14503835 -0.059984338 -0.018520702 -0.15890044
000390 b2 59 bd 3d 16 f7 3d 3e fb 4c 1b be 20 21 1e be
       0.09245624 0.18551287 -0.15166084 -0.15442324
0003a0 99 06 9d bd fb d1 6c be 51 fb 04 3d c6 33 30 3d
       -0.07667274 -0.23126976 0.032466237 0.043018125
0003b0 4e 1d 39 be d9 46 73 3d 62 ea 48 3e 70 99 0b be
       -0.18077585 0.059393737 0.1962066 -0.1363275
0003c0 04 84 3e 3d 56 ed bb 3d e2 ba c4 bd 9f e2 c5 bc
       0.04651262 0.091761276 -0.096059576 -0.024155913
0003d0 2a 42 e9 3d 5d f6 1c 3d 93 af 3a 3e 8b e7 6b bc
       0.11389573 0.038320888 0.18231039 -0.014398466
0003e0 39 de 40 bd ee 6f 2d be 8c e5 e7 bd ec 52 4e be
       -0.047086928 -0.16937229 -0.113230795 -0.2014882
0003f0 31 a0 33 bc ae 31 4b 3e e7 78 bb bb 69 0a 1c 3e
       -0.010963486 0.1984317 -0.0057212 0.15238346

bias f4 [32]
000000 80 cd 03 3e 76 6f 7a 3e 0c 23 34 3d e1 52 0c 3e
       0.12871361 0.24456581 0.043978736 0.13703491
000010 09 8e 1e 3e bf 03 89 bd e6 d8 3f 3e 27 cc 27 3e
       0.1548387 -0.06690168 0.18735084 0.16386472
000020 31 83 27 3d 2b f5 de 3d bb 01 be bd e8 c7 43 3b
       0.0408966 0.10886606 -0.09277674 0.0029873792
000030 fa 62 17 3d 3a 23 8a 3d 9a 01 ad bc b4 46 81 bd
       0.036959626 0.06745 -0.021118928 -0.06312314
000040 f3 e1 09 3e 1f 35 5c be b5 4a 74 bd b5 5b f1 3d
       0.13465099 -0.21504639 -0.05964156 0.1178507
000050 6f 98 ba 3d f8 01 06 3e 68 0a 79 3e 01 e9 5f bc
       0.09111106 0.13086689 0.24320376 -0.013666392
000060 d9 5d 35 be 33 60 5c bb 05 3a 50 3d ad 53 37 bd
       -0.17711581 -0.0033626675 0.05083658 -0.044757534
000070 b2 72 f6 3d c9 1d e3 bc 03 a5 80 bd bb 7e 6b 3d
       0.12033595 -0.027724164 -0.062814735 0.057493906

weight f4 [64, 32, 3, 3]
000000 bc 3f 72 be 29 f0 0e be 1f 40 6a 3d e1 f9 6a be
       -0.23657125 -0.13958801 0.057190057 -0.22946884
000010 a5 09 0e be 44 95 2a bc a8 6d cc bd 60 48 4a 3d
       -0.13870867 -0.010411564 -0.09981853 0.04938543
000020 8d 55 79 bd 1b 74 eb bd 1c 96 a9 bd c8 0f 42 3d
       -0.060872603 -0.11496755 -0.08280584 0.04737833
000030 bc 0e 4c bd 45 be 9b bd fa 4e 34 3d 8f 75 79 3d
       -0.04981874 -0.076046504 0.04402063 0.06090313
000040 aa ac 3f 3e d0 91 32 3e 6f cc da bd c5 96 0d be
       0.1871821 0.17438436 -0.10683524 -0.13827045
000050 e6 63 2d bb 6a 01 31 3c d0 e8 f4 3c 6e 6e dc 3d
       -0.002645725 0.01080356 0.02989617 0.1076325
000060 cc bb 73 bb 70 8a 74 3c a5 b4 b6 3b dd fa 91 bd
       -0.0037190793 0.014925584 0.0055757337 -0.071279265
000070 d9 73 ba bd bd b8 73 bb 52 d6 81 3d 71 02 f3 3d
       -0.091041274 -0.003718897 0.063397065 0.118657
000080 85 5e bf 3d 05 29 f1 3d 28 a0 f9 3d 6a 4d 93 3c
       0.093442 0.11775402 0.121887505 0.01798125
000090 a9 c4 95 bd d1 0d 9b bd b8 3a e2 bd 1c 22 95 bb
       -0.073129006 -0.07570995 -0.11046356 -0.0045511853
0000a0 12 71 00 3c be 3b 88 3d 2a 12 28 bd 15 b8 af 3d
       0.007839458 0.0665202 -0.041032948 0.08580033
0000b0 cb ba 2e 3d c0 11 91 3c 08 cf c7 bc 63 62 a9 bd
       0.04265861 0.01770866 -0.024390712 -0.08270719
0000c0 21 53 18 3d fd c4 24 3d 29 d6 1c bd 16 25 26 bd
       0.037188653 0.040226925 -0.038290177 -0.04056271
0000d0 2c 07 a1 bd d5 b7 11 bc 04 5c 5f bc 38 17 17 3e
       -0.07862696 -0.008893927 -0.013632778 0.14754951
0000e0 0c 53 9e bb d2 ab c4 3d fc 94 4a 3e 79 b1 ec 3d
       -0.0048316773 0.096030846 0.19783396 0.11557288
0000f0 eb cd dd 3d 17 74 77 3d 8d b8 a4 3d ca f6 12 bd
       0.10830291 0.060413446 0.08043013 -0.035879888
000100 4a fa 86 bd 76 af e0 bc cc 0a c4 bd 43 e2 20 bd
       -0.065907076 -0.027427416 -0.09572372 -0.03927828
000110 40 70 ad 3d b2 fb 3b bd 8a d5 72 bd 7f 63 9a 3d
       0.084686756 -0.045894332 -0.059285678 0.075385086
000120 76 d4 4e bd 49 1c f5 3c 89 f7 f7 bb 70 4f a2 bc
       -0.050495587 0.029920714 -0.0075673503 -0.01981327
000130 cc e9 c4 3d 40 48 98 3c f5 02 0d be 9a 8b d8 bd
       0.09614906 0.018589139 -0.1377066 -0.10573502
000140 7e 78 38 bd 8b c2 8e bc 18 44 05 3e 7d a3 d2 3c
       -0.045036785 -0.01742675 0.13014257 0.025712723
000150 b3 1b 8b 3d df 85 d0 3d 3e 5c 27 3d 69 20 09 3d
       0.067923926 0.10181784 0.040859453 0.033478174
000160 99 9e 01 bd d2 92 22 3c c9 36 da 39 eb 3b 11 bd
       -0.03164539 0.0099227 0.00041621018 -0.035457533
000170 58 2e a9 3b 27 fb 5a 3d de bf ec 3c 5a 14 43 bd
       0.0051629953 0.053462174 0.028900083 -0.04762683
000180 81 f7 95 bc 6f 5e 4e 3d 85 f5 4d 3b c6 07 3f be
       -0.018306496 0.050383028 0.0031426859 -0.18655309
000190 09 11 1c be 3b d7 ab bd e1 95 30 be 60 70 8e bd
       -0.15240873 -0.08390661 -0.17244674 -0.069550276
0001a0 a6 2b 87 bd 31 66 08 3e c4 4b 5e 3e dd 47 48 3e
       -0.06600122 0.13320233 0.2170859 0.19558664
0001b0 73 04 e8 bc ef 70 00 bc c3 a7 74 bd ca 96 e5 3c
       -0.028322434 -0.0078394255 -0.059730303 0.028026003
0001c0 ea a0 1a 3d ff a2 eb 3b 30 d9 66 bc c4 78 99 bc
       0.037751116 0.0071910615 -0.0140898675 -0.018734343
0001d0 5d 91 0b 3d 7f ce 91 bd 48 ee a7 bc 88 12 c4 bd
       0.034074176 -0.07119464 -0.020499364 -0.09573847
0001e0 75 1d 26 3d 82 b6 f6 3d 8c 82 5f 3b 69 b3 6a 3d
       0.040555436 0.12046529 0.0034104912 0.057300005
0001f0 19 96 f1 3c 65 a0 3a 3d 41 fd f9 bc 36 6c fa bd
       0.029490517 0.04556312 -0.030516269 -0.12227671
000200 21 22 1d be 4e 2b 5a bd 58 42 4b bd 6c 67 9e 3c
       -0.1534505 -0.053263955 -0.049623817 0.019336425
000210 b9 20 77 bd 13 6a 04 3e a6 6d a1 3d bd 92 58 3c
       -0.06033394 0.12931089 0.07882242 0.013218579
000220 d7 13 f3 bd f0 ca 61 3d ff 9d 81 bd 2b 83 96 bd
       -0.118690185 0.055125177 -0.063289635 -0.07349237
000230 48 dd 98 3c 4a 80 de 3b ab 34 76 3d 98 92 a0 3d
       0.018660203 0.0067901956 0.06010882 0.078404605
000240 17 90 f2 bd 00 51 ec bc 71 f6 b2 bc 67 93 e0 bd
       -0.11843889 -0.028847218 -0.021846028 -0.10965615
000250 00 c8 30 be f8 41 bf bd 07 3f fa bd 25 32 b8 bd
       -0.17263794 -0.093387544 -0.12219053 -0.08993939
000260 34 62 17 bd 0e cc 9f 3d 49 be fb ba 2a e5 ec bd
       -0.03695889 0.07802592 -0.001920649 -0.11567147
000270 8a 60 cf bb 08 bf 99 bc 96 1f 57 bb 9b 3a 87 bd
       -0.006328647 -0.018767849 -0.0032825223 -0.06602975
000280 69 9c f9 bc d4 99 06 3d 4e 83 97 be 23 10 f2 be
       -0.03047009 0.032861546 -0.29592365 -0.47277936
000290 2e 2d c8 be 72 e2 7a 3c 54 b3 c9 ba d7 53 0b 3d
       -0.3909697 0.015312778 -0.0015388527 0.034015503
0002a0 50 74 77 3d fd e0 4d 3e 10 d9 3d 3e 14 51 2c bd
       0.06041366 0.20105357 0.18539834 -0.04206951
0002b0 5f 86 10 bd 1a 32 ac 3b b6 18 d6 bb 01 9e 8e 3b
       -0.035284396 0.005254996 -0.0065337075 0.0043523316
0002c0 c2 88 9c bd 9e d3 60 bd bf 25 87 bd c0 e0 38 3d
       -0.07643272 -0.054889314 -0.06598996 0.045136213
0002d0 a5 ee b4 bd 09 ae 03 bd 2d e5 a1 3a 08 4e 90 bd
       -0.0883458 -0.032148395 0.0012351625 -0.07046133
0002e0 35 16 6e bd ca 2b 0d bd c5 48 88 bd 46 27 2e 3d
       -0.058126647 -0.03446559 -0.06654505 0.042517923
0002f0 bc 70 c4 3d 16 d4 d6 bc d7 42 58 bd 73 0d a7 bd
       0.09591815 -0.026224177 -0.05279812 -0.08156862
000300 ca ca 0d bc 07 1b 59 3c d3 34 19 bd 44 48 4b bd
       -0.008654306 0.013251073 -0.037403893 -0.049629465
000310 ac fe 8c 3b ca 00 5f 3d 4b 53 b4 bc 62 e6 3b bd
       0.00430282 0.054444112 -0.022012373 -0.045874007
000320 ef d5 12 3d fd b4 8c bd 52 c6 10 3d a0 3b d3 bc
       0.035848554 -0.06870458 0.035345383 -0.025785267
000330 cf eb b7 bd 81 71 df 3c ae d1 9e 3d 70 2e 21 be
       -0.08980524 0.027275803 0.07754837 -0.15740371
000340 e2 15 4c be 7f d8 7a be 95 08 94 bc 70 cf ee 3c
       -0.19930223 -0.24496649 -0.018070498 0.029151648
000350 a0 fc 3f 3c da 9b 05 3e 96 36 5f 3e c5 f6 2a 3e
       0.011717945 0.13047734 0.21798167 0.16695698
000360 e6 2c c0 bc 30 31 3b 3b 40 5e 4c 3a e4 8a 11 bd
       -0.02345891 0.0028563254 0.0007796027 -0.035532847
000370 1e 62 f7 3c b0 39 11 bb e4 74 42 3c f0 b5 6e bc
       0.030198153 -0.0022159629 0.011868689 -0.0145697445
000380 de 57 1d bd ac 26 51 bc 31 05 d8 bc d7 1a 30 bd
       -0.038413875 -0.012765568 -0.026369663 -0.042994346
000390 12 b5 a8 bd 35 7d 90 3d 4b a6 24 bd 5c 15 9c bd
       -0.082376614 0.07055131 -0.04019765 -0.076212615
0003a0 c3 e9 80 bd 44 58 c4 bd 5b 96 89 bd 5d 05 bf bd
       -0.062945865 -0.09587148 -0.06718131 -0.09327195
0003b0 1b 5d 45 3d 97 28 ea bd 05 19 80 bd 0a f9 c6 bc
       0.048184495 -0.11433523 -0.06254772 -0.024288673
0003c0 ef 22 2d 3d ad 82 af 3d 3d 73 04 3e f3 ae 83 bd
       0.042269643 0.08569846 0.12934585 -0.06429853
0003d0 71 d2 9b 3d d6 a6 36 3e 32 0d 4a bd 1b e2 03 3e
       0.07608498 0.1783708 -0.04932899 0.12879221
0003e0 54 fe 16 3e 42 0d 8d bd 48 44 f1 bd 41 d3 3c be
       0.14745456 -0.06887294 -0.11780602 -0.18439962
0003f0 62 73 ec bd 6e 7e 07 be 2a 85 4f bd 4b 2d 69 bd
       -0.11545445 -0.13231823 -0.050664105 -0.05692796

bias f4 [64]
000000 b6 bd 0b 3d 28 1d 6a 3c 7e 79 90 bc 60 2d 8b bd
       0.03411647 0.014289178 -0.017636057 -0.06795764
000010 52 86 71 bc 6f b9 86 bd fa 2e 5f bd d1 84 8a bd
       -0.014741497 -0.065783374 -0.05448816 -0.06763614
000020 68 42 29 3d 64 7f 39 bd 56 13 77 bd e4 8c 12 bd
       0.041323096 -0.045287505 -0.060321175 -0.035778895
000030 01 ed 02 bd c7 09 5f bd d3 d2 a7 bb 38 6b 14 bd
       -0.031964306 -0.054452684 -0.0051215678 -0.036235064
000040 f7 6b 19 bd 89 56 87 3d 3c f2 e1 bc 77 37 69 3d
       -0.03745648 0.06608302 -0.027581327 0.05693766
000050 1e 3a 0a 3b fc 13 17 3c 21 22 46 bd 6c bf f5 3b
       0.002109177 0.009221073 -0.04837239 0.007499626
000060 67 a5 1c bd d0 45 18 bc 41 ea ae bd 01 c0 38 bd
       -0.038243677 -0.009293988 -0.08540774 -0.045104984
000070 87 68 b5 bc 8d f8 18 bd 0d eb 26 bc 64 ef a2 bc
       -0.02214457 -0.03734641 -0.010187876 -0.019889541
000080 0b be c7 3c 3b 38 0f ba f7 95 65 bd af 39 42 bd
       0.024382612 -0.0005463396 -0.05605122 -0.047418293
000090 27 e5 72 bc e1 4b 03 bd 53 ea c2 bd dc b7 c7 3c
       -0.014825142 -0.032054786 -0.0951735 0.024379663
0000a0 84 e3 61 3d a5 05 38 bd 32 66 cb 3c fc f1 47 bd
       0.055148616 -0.044927258 0.024829004 -0.04881476
0000b0 96 d5 c5 3b 7d 8b 2b ba 22 71 01 bd f7 fc 11 bc
       0.0060374243 -0.00065439177 -0.031602032 -0.008910409
0000c0 07 d9 d2 bd bc d2 03 3d 75 fb 78 bd 35 e4 19 3c
       -0.10295301 0.032183394 -0.060786683 0.009392788
0000d0 8f c2 87 b8 93 95 53 3d e2 96 4f bd 2b 8d 66 bd
       -6.473541e-05 0.051656317 -0.050681002 -0.056286972
0000e0 56 ac cf 3d 8a a5 34 3c 6e 99 30 bd 4a d4 09 bd
       0.10140292 0.011025796 -0.043115072 -0.03364972
0000f0 6a ed 3b bd 31 81 7e 3d 24 ea 35 3d d3 c6 43 bd
       -0.045880713 0.062134925 0.044412747 -0.047797035

weight f4 [64, 64, 3, 3]
000000 ec c2 82 bd 3b b4 24 3d a3 b1 0e 3e c9 78 2c bd
       -0.06384835 0.040210944 0.1393495 -0.042107377
000010 aa aa 80 bc 57 eb 01 3e 0e 37 59 3c c5 74 8e 3d
       -0.015706379 0.12687431 0.013257755 0.06955866
000020 2c 86 8a 3d 4e b4 9c bd ff 8f 71 bd d0 4b 18 bc
       0.067638725 -0.07651578 -0.058975216 -0.009295419
000030 cc d3 85 bd 5d b8 51 bd 32 92 07 bc dc c8 28 bd
       -0.06534538 -0.051201213 -0.008274602 -0.04120718
000040 89 16 42 3c 3d 8f 94 3c 1b c7 b9 3c 0e 7e c9 bc
       0.011846193 0.018134708 0.022677949 -0.02459624
000050 9d e5 01 3d 46 1a 1c 3d ad 06 9e bc 5b 53 23 3d
       0.031713117 0.038110994 -0.019290293 0.039874416
000060 aa 46 91 3c ce 25 13 3d d2 da 31 3c b8 9a f7 bc
       0.01773389 0.035924725 0.0108553935 -0.030225143
000070 41 73 c0 bd 2e a7 b9 bc 44 8f eb bd 27 06 21 be
       -0.09396983 -0.022662725 -0.11501935 -0.15725003
000080 46 bc 35 3d 13 5e 07 bd d6 33 3c be 51 ce 42 bc
       0.044369005 -0.0330487 -0.18379149 -0.01189001
000090 da ed e4 bd 04 7b ad bd a7 e7 5b 3d 6c 8e 0c be
       -0.11178179 -0.08470729 0.053687718 -0.13726205
0000a0 17 52 bb bd 90 5f 01 3c 5e 49 81 bd 9b d9 26 bd
       -0.09146517 0.007896319 -0.06312822 -0.04073487
0000b0 ec a4 8e 3d 99 ba 18 3d a7 c9 93 3c 9f 16 2f 3b
       0.0696505 0.03728733 0.018040491 0.0026716364
0000c0 88 35 1e bb 22 68 3c 3d 9a c1 84 bc c4 68 0b bd
       -0.0024140794 0.045997746 -0.016205598 -0.03403546
0000d0 6c 7b 0a bd ef d2 8f 3c a1 6e 99 bb 68 e0 2a 3c
       -0.03380911 0.017556636 -0.0046823774 0.010429479
0000e0 70 29 d8 3c ed b8 81 bc 6f 1b 23 3d 13 3b 33 bd
       0.026386946 -0.01583525 0.039821085 -0.04375751
0000f0 3b 4c 11 3d 06 92 12 3d 1a 43 93 bc da d6 f4 bc
       0.03547309 0.03578379 -0.017976332 -0.029887605
000100 55 d8 b3 bc c6 14 0c 3d c4 75 4b 3d b1 89 03 bd
       -0.021953741 0.0341995 0.049672857 -0.032113735
000110 96 48 46 3d b6 4e 29 3c fc 04 8f 3d 60 e1 f0 3c
       0.048409067 0.010333708 0.069833726 0.029404342
000120 33 d0 f7 3c 68 7e 9b 3d bc 74 c4 3d e0 3c fd 3c
       0.030250644 0.075924695 0.09592578 0.030912817
000130 f1 a5 6b 3d 0e 5f 41 3d d6 9d 05 3d 32 77 79 3c
       0.0575313 0.04720979 0.032621227 0.015226172
000140 63 f3 aa 3c f7 04 12 3d d5 82 5d 3d 5c a3 e2 3d
       0.020868009 0.035649266 0.05407985 0.110663146
000150 08 b9 2d 3d 64 9d d5 3c eb f2 58 3c f6 96 44 bb
       0.042412788 0.026076026 0.01324151 -0.0029997206
000160 44 4f 88 bc 3a f9 f6 bc 66 11 c3 bc 0b e0 48 3d
       -0.01663936 -0.030148137 -0.023812007 0.04904179
000170 ec 79 41 3b b5 67 64 bc 5f 03 6f 3d 34 98 a7 3d
       0.0029522134 -0.013940741 0.058352824 0.08183327
000180 1d 0e 57 bd 25 07 63 bd 58 97 72 bd 36 92 85 bb
       -0.052503694 -0.055426735 -0.059226364 -0.0040762676
000190 23 8f ff bb db 61 1f bd 79 5d b4 3c a6 4f 25 bc
       -0.0077990456 -0.03891168 0.022017227 -0.01008979
0001a0 f0 d8 9d bc 75 38 ab 3c 1d 0d 0e bc 36 3d d4 3b
       -0.019268483 0.020900944 -0.008670119 0.0064770235
0001b0 df fb 08 bb 83 fc f6 bc 82 3c 05 bd de 43 8e 3c
       -0.002090208 -0.030149704 -0.032528408 0.017366346
0001c0 88 02 85 3b 5a aa 01 bd a5 d2 f9 3c f8 1c 22 3d
       0.0040591396 -0.0316566 0.030495951 0.039578408
0001d0 90 4b 94 3b b6 bc 20 bd 97 e3 2f bd 59 0d c5 bd
       0.0045256093 -0.03924247 -0.042941656 -0.096216865
0001e0 0c 8c b8 bc fd b7 d5 bc 70 b1 4e 3c c4 f3 85 3d
       -0.022527717 -0.026088709 0.012615547 0.06540635
0001f0 e0 df e9 bc f9 79 bc bc b8 e4 9f 3c f1 d1 ee 3b
       -0.028549135 -0.02300738 0.019518241 0.0072882106
000200 11 c4 4a 3c c4 90 ac bc 9a 1b f2 3c d2 77 0a bd
       0.012375847 -0.021065123 0.029554177 -0.033805676
000210 ad 13 2f 3c 5a f5 f7 3b b1 e2 85 bb 97 66 90 bd
       0.010685843 0.00756709 -0.0040858616 -0.070508175
000220 3c e3 1d 3d bc dd ad 3d b8 d3 84 3c 15 5c 65 bd
       0.038546786 0.08489558 0.016214237 -0.05599602
000230 a6 48 17 3c d9 dd ec 3c 16 88 3c 3a c7 50 fa bc
       0.009233629 0.028914379 0.0007191909 -0.030556096
000240 47 40 b2 3d f4 40 bd 3d 9d f2 6d bc 61 2b 8a 3d
       0.08703666 0.092409045 -0.014523176 0.06746555
000250 d9 0a 6e ba 6d 6f 90 3b ba 30 57 3b 0e 39 e4 bc
       -0.0009080596 0.0044078142 0.003283544 -0.027859237
000260 4c 15 56 bd 77 ce 1e bd ca dc 79 bc ab 53 96 3c
       -0.052266404 -0.03877112 -0.015250394 0.018350443
000270 0f 9b 65 3d be 26 64 3c 23 e7 84 3d 2f f5 fe 3d
       0.05605608 0.0139252525 0.06489398 0.12449109
000280 3b 53 11 3e a5 26 fa bc 55 53 cb bc 25 05 89 3d
       0.14191906 -0.030536005 -0.02482001 0.06690434
000290 08 78 05 bc 2d a5 1d 3d ba e4 36 bd 55 82 f9 3c
       -0.008146293 0.038487602 -0.044651724 0.030457655
0002a0 8e 55 72 bb bd 6f 75 bb 8f 57 4b bb 33 cb c2 3c
       -0.0036977264 -0.0037450634 -0.003102753 0.023778534
0002b0 a2 ae ed 3c 4d a0 04 3d b6 37 b3 3c 2c 1e 43 3d
       0.029013935 0.032379437 0.021877151 0.047636196
0002c0 5a db ce 3c 81 b9 e5 3c 19 52 1d 3d 23 58 7f bd
       0.02525108 0.028042557 0.038408373 -0.062339913
0002d0 86 78 98 bd fc 9e bf bd 8a e9 cb bb b4 31 9c bd
       -0.07444863 -0.09356496 -0.0062229084 -0.076266676
0002e0 47 0d 89 bd 46 54 d8 3c de 60 d5 3d d1 97 3a 3d
       -0.066919856 0.026407372 0.104188666 0.04555494
0002f0 4e 0f ca ba 45 2f 07 bd 9c dc 01 bd 70 d9 59 3c
       -0.0015415938 -0.033004064 -0.03170453 0.01329647
000300 4f 65 f4 ba 85 97 6e 3c 7d 6b 05 3d b3 a7 92 bc
       -0.0018645915 0.014562492 0.032573212 -0.01790223
000310 ab d6 48 3c bd ec 1f bc 0e 7b 8d bd f2 24 86 bc
       0.012258212 -0.009761033 -0.069082364 -0.016375039
000320 93 e8 53 3c 12 12 6f bd 20 64 9d bc b8 b3 19 3d
       0.012933868 -0.058366843 -0.019212782 0.03752491
000330 fb b0 2e 3c cc 20 80 3b fa 18 c8 3d 41 b4 a6 3d
       0.010662313 0.0039101597 0.09770389 0.081398495
000340 14 ff ea bc ea 45 14 3e 60 74 ac 3c b6 ce 9f bd
       -0.028686084 0.14479795 0.021051586 -0.07803099
000350 ab 67 f6 3d 5c dc c4 3d 65 c3 02 bd 66 53 bb bc
       0.12031492 0.09612343 -0.031924624 -0.022866916
000360 ff af fe bd a1 b5 55 bc a0 d3 00 3d b2 8c e5 bd
       -0.12435912 -0.013043792 0.03145182 -0.11208476
000370 9b f6 56 bd a9 83 8f 3c 19 08 44 bc 8b 65 df 3c
       -0.052481275 0.017518835 -0.011964821 0.0272701
000380 5b a4 9b 3d c7 3c d5 bc 7a 86 4c bc a3 8f a8 3d
       0.07599708 -0.026029957 -0.012483234 0.082305215
000390 aa 94 11 bc 7b 07 22 3d f0 4a 19 3d 6a 08 e3 bc
       -0.008885542 0.039557915 0.03742498 -0.027713973
0003a0 96 8c 81 3d 9f 51 f2 bc 23 3e 03 be 19 10 08 be
       0.06325643 -0.029579936 -0.12816672 -0.13287391
0003b0 3e 48 26 bc ff bb 91 bd 94 3a 6b bd 16 7f 7d 3d
       -0.01014906 -0.071159355 -0.05742891 0.061888777
0003c0 f8 de 3e bd dc 51 da bc 63 c9 b0 3c 20 07 c4 3a
       -0.04659936 -0.026650362 0.021580404 0.0014955737
0003d0 c6 c2 ed 3c fd 85 1b 3d ee c0 cb 3c a6 21 f4 bc
       0.02902354 0.037969578 0.02487227 -0.029801201
0003e0 7d a1 7e 3c 18 2d a2 3c b8 ad ed bb 43 01 04 3d
       0.0155414315 0.019796893 -0.007253375 0.032227766
0003f0 1c 7a fd bc e5 7f 9c bd b2 a0 d7 bc 5a 8f 9c 3c
       -0.030942015 -0.076415814 -0.026321743 0.019111324

bias f4 [64]
000000 b5 06 9a 3d b9 43 26 3c 71 a5 bf 3c 2a 10 cb bc
       0.075208105 0.010147982 0.023394318 -0.024787981
000010 5d 85 15 bd 7c e6 ca bc b5 48 7d 3b c7 45 e6 bb
       -0.03650414 -0.024768107 0.0038648073 -0.007027361
000020 a8 02 a0 bc 83 68 32 bd 2b e4 ae bc 91 3d 5e bc
       -0.019532517 -0.0435567 -0.021349033 -0.013564483
000030 43 19 79 3b 71 6a 5d bd fb fa 1f 3d 0b 3e 90 bd
       0.0038009442 -0.05405659 0.039057713 -0.07043084
000040 3c d3 05 3c 5e 8b 0f 3c e1 cd 51 bd f7 d7 fc 3b
       0.008168038 0.008761255 -0.051221732 0.0077161747
000050 85 16 9b 3c 0d 18 94 bd c9 1f 28 3d 49 35 eb 3a
       0.018931637 -0.0723115 0.041045938 0.0017944957
000060 fa 6d 77 3d 4c 8a c5 bc 27 c9 bf 3c 06 6c 48 3c
       0.060407616 -0.024113797 0.023411347 0.012232786
000070 bb 9c 63 ba 13 53 27 3d fd 13 b1 3c 54 6d fe 3d
       -0.00086827175 0.04085071 0.021615976 0.124231964
000080 a3 0c 52 3d f4 82 75 bc 92 57 67 bd 05 2b 69 3c
       0.051281583 -0.014984835 -0.056479998 0.014231448
000090 8f 67 d6 3b f7 93 44 bd 73 9e 3b 3b 75 1d e2 3c
       0.006543107 -0.047992673 0.0028628379 0.027601937
0000a0 47 7f 37 bd 17 6b 36 bd 63 d3 70 3c 27 85 ef 3b
       -0.044799116 -0.044535723 0.014698836 0.007309574
0000b0 eb ff 46 bc c4 8c 6a 3c a6 a9 9a bb fe e6 86 bc
       -0.012145977 0.014315788 -0.0047199307 -0.016467568
0000c0 23 87 18 bc 10 22 0d 3d 55 8d 11 3d 38 83 32 3c
       -0.009309563 0.034456313 0.035535175 0.010895543
0000d0 39 44 b0 3c 91 27 7d b9 bf c4 d7 3d 3e 44 c1 bc
       0.021516906 -0.000241427 0.10535573 -0.02359211
0000e0 72 dd df 3c 4a 52 bc bc 6c 32 24 b9 2b d8 91 3b
       0.027327273 -0.022988457 -0.00015659042 0.004450818
0000f0 86 c5 56 3d a7 f1 4e 3a 34 20 a5 bc d2 87 f9 bb
       0.052434467 0.00078942854 -0.020156957 -0.007615068

weight f4 [128, 576]
000000 6b a0 3f bd 7b cd 23 bd eb b2 ad bc 45 f2 a1 bc
       -0.046783846 -0.039990883 -0.021203479 -0.019768843
000010 69 78 15 3d 03 06 cb bc aa 8e 03 bd 6d ed 14 3d
       0.036491785 -0.02478314 -0.032118477 0.03635924
000020 02 a5 ba 3c f0 5d 89 3c 04 ef c6 3b df cf e6 bc
       0.02278376 0.016768426 0.0060709734 -0.028175293
000030 58 9a 8a 3c cd 14 05 bd 18 3d af 3c 49 93 97 bc
       0.0169193 -0.03249054 0.021391436 -0.018502848
000040 61 62 24 bd a4 01 b9 3b 0e fc 38 bb f3 7d 0f 3d
       -0.040132884 0.0056459475 -0.0028226408 0.035032224
000050 8f ff 21 bd 6b 11 5b bb 63 fc e6 3c 28 71 c3 bc
       -0.03955036 -0.003342713 0.02819652 -0.023857668
000060 c2 00 f2 bb b0 1c 77 3c c1 e9 0c bc 7b b2 d4 bc
       -0.0073853442 0.015082523 -0.008600653 -0.025964012
000070 b0 26 16 bc 88 1f f3 3c fa 23 d7 3c 09 f3 91 3c
       -0.009164497 0.029678121 0.026262272 0.017816084
000080 38 c2 09 bd a6 d4 82 3c 37 c7 e6 3b 1d 51 f3 bc
       -0.033632487 0.01597054 0.007042791 -0.029701764
000090 5b bc 9b bc e0 97 50 3c 0c 72 43 bd 91 0d 61 3a
       -0.019010713 0.012731522 -0.047716185 0.00085850904
0000a0 2e 59 25 bc 6d 26 1c 3c 7f fe 45 bd 83 a4 ec 3c
       -0.010092063 0.009530646 -0.04833841 0.028887039
0000b0 9a 73 bf 3c 7c 25 41 bc a7 c2 0a bd ee 2d e3 3c
       0.023370553 -0.011788722 -0.03387704 0.027731862
0000c0 75 f7 0b 3d c0 18 6b 3b 70 07 3e 3c 3e f6 15 bd
       0.03417154 0.0035872906 0.011598453 -0.036611788
0000d0 2c 9e 7d 3c 28 24 dd 3b d0 f9 54 bb ca 2d f9 3c
       0.015479606 0.006748695 -0.0032497533 0.030417342
0000e0 f0 1f d0 bc 58 41 83 3b 74 57 16 3c f0 7e 61 3c
       -0.025405854 0.0040055923 0.009176124 0.013763174
0000f0 7e c9 b8 3c ec 33 4d 3c ca 67 cd 3c 11 a5 05 bd
       0.022557016 0.012524586 0.025073905 -0.032628123
000100 67 88 1b bd 5c 57 e5 3c 51 dc 0b bd ec 2a 92 bb
       -0.03797188 0.027995758 -0.034145657 -0.004460683
000110 86 6c b5 3c bc 31 27 3b cb 4e 8d bb 74 65 a9 3b
       0.022146475 0.0025511822 -0.0043123714 0.005169565
000120 e3 74 9a bc 2d 7f 1a 3d bd 1a 15 3d 22 02 9b 3c
       -0.018854564 0.03771894 0.036402453 0.018921915
000130 30 fb 2f bc e0 5e a0 3b 46 e6 94 bc 06 5d b3 3c
       -0.01074104 0.0048941225 -0.01817621 0.021894943
000140 09 58 15 3d ee cb 3d 3c 03 35 e2 3c 68 f2 0d 3d
       0.03646091 0.011584265 0.027613169 0.034655005
000150 22 d4 4c bc db c4 22 3c 8a 32 a7 3a ca 32 3b 3c
       -0.012501748 0.009934629 0.0012756151 0.011425683
000160 81 a5 00 3d df f1 22 bd cf 77 bf 3c c2 89 39 bd
       0.031407837 -0.039781447 0.023372559 -0.04529739
000170 2f ca 37 bd 61 42 67 bc f5 dd 36 3c dc 20 a3 3c
       -0.04487055 -0.014114947 0.011161317 0.01991313
000180 0b ee 32 ba 32 c8 bc bc 4f 28 86 39 3e d6 03 bd
       -0.00068256323 -0.02304468 0.00025588504 -0.03218674
000190 b4 53 81 bc dd 72 c6 bc f3 73 b7 3c 22 74 1b bd
       -0.015786983 -0.024224693 0.022394156 -0.03795255
0001a0 3f e0 2c bc ae 73 ff 3c e2 15 b2 3c af fd e5 3c
       -0.010551511 0.03118309 0.02173895 0.028075067
0001b0 63 b5 1b bd a1 55 4e bd 74 3b e7 bb ec a7 c9 3c
       -0.03801478 -0.05037463 -0.007056648 0.024616204
0001c0 1d 23 64 3c 5a a1 1e bd 5e 0f 1e bd ad be 78 3c
       0.013924387 -0.038728096 -0.038588874 0.015182179
0001d0 29 ed 4d 3c 7d bb bd 3b 95 bf c4 3b 9e a3 20 3c
       0.01256875 0.0057901726 0.0060042837 0.009804634
0001e0 3b 1a 4d bd 91 4d 47 bd 49 5b ba bc de da 29 3c
       -0.050073843 -0.048657957 -0.022748606 0.010367123
0001f0 41 b9 31 bd 88 0c 10 3c 94 74 20 3c 69 77 df bc
       -0.043389563 0.00879205 0.009793419 -0.027278619
000200 d5 99 cd 3c b8 bd 3f 3c bb 2b 3e bd 9f 6d 0c bd
       0.025097767 0.011702947 -0.046428423 -0.03428423
000210 c4 a0 18 bd 75 11 8c bb eb 19 c3 3b 6f 1e 1c bc
       -0.037262693 -0.004274542 0.0059540174 -0.00952874
000220 0d 7a ce bc 70 d6 f8 bc dd 13 2f bd 70 40 dd b9
       -0.025204683 -0.03037569 -0.042743552 -0.00042200414
000230 03 5f fe 3c dc b2 39 bd 3a 7b 31 3b c2 ae 2d bc
       0.031051164 -0.04533659 0.0027081505 -0.010600748
000240 91 8d bc 3b 1f 03 3c 3c 0a 87 f6 bc 86 30 00 bd
       0.0057541807 0.0114753535 -0.030093689 -0.031296276
000250 56 ca 89 bc db 43 01 3d 94 47 03 bc 60 9b 94 3a
       -0.016820114 0.031558853 -0.008012671 0.0011337809
000260 0e 02 3f bc bf 97 51 3c ea 2f c1 3c a3 0c 28 3c
       -0.011658205 0.012792527 0.023582418 0.010256919
000270 26 50 c9 3c f6 ac e3 bc c8 55 f0 bc de 0e b8 bb
       0.02457435 -0.027792435 -0.029337779 -0.0056170067
000280 7e 29 9a bb 7a 72 fb 3c 60 e2 a0 3c 91 f4 70 3c
       -0.0047046533 0.030694235 0.019639194 0.014706747
000290 f0 be f2 3c e3 23 b4 3c e2 d9 11 bd 8e eb 04 bd
       0.029632062 0.021989768 -0.03560818 -0.032451205
0002a0 24 0a c1 bc 78 67 83 bb 90 03 0d 3c 13 c0 b4 bb
       -0.023564406 -0.004010137 0.008606806 -0.005516061
0002b0 a1 02 a1 bc 82 b5 bf 3b 56 56 ca bb cb c6 83 3c
       -0.019654574 0.005850495 -0.006174843 0.016086003
0002c0 a7 95 6f bc 4b 0a f5 3c bf 79 2b bd 33 99 d8 3c
       -0.014623082 0.029912135 -0.041864153 0.026440239
0002d0 d4 95 0a 3c 6b 63 08 3d 55 f1 41 bd fd 3c f8 bc
       0.008458573 0.033297937 -0.047349293 -0.030302519
0002e0 52 c9 87 bc f9 fc 23 bd 40 e3 95 3c 9c f4 eb 3c
       -0.01657549 -0.040036175 0.018296838 0.028803162
0002f0 43 a3 ac 3c 83 ec 2d bb 52 39 98 3c ba 69 fe 3c
       0.021073943 -0.0026538677 0.01858202 0.031056274
000300 2d cd 26 3d db 54 fb bc b0 50 4f bc 20 33 90 3b
       0.040723015 -0.03068011 -0.012653515 0.004400626
000310 7a 63 06 bd f3 25 28 bd 1b 0a 9a ba 89 eb 3a bd
       -0.032809712 -0.041051816 -0.0011752279 -0.04563478
000320 11 b5 85 bc 58 be b4 bc 8c 68 e6 3c 0d ab ee bc
       -0.01632169 -0.02206342 0.028126024 -0.029134298
000330 ae af ee 3c 9a d3 74 3c ba 48 64 bc 64 ed 44 bc
       0.029136505 0.014943028 -0.013933355 -0.012019489
000340 12 69 0c bd 97 fd 35 bc b6 93 0a 3c 54 0a ac bc
       -0.03427989 -0.011107824 0.008458069 -0.021001019
000350 9e d9 6e bc 64 a5 29 bc 23 8c 91 3b 76 c1 83 3c
       -0.014578251 -0.010354374 0.0044417544 0.01608346
000360 3a 60 b2 bc fa be 46 bd 25 f1 da 3c 96 57 22 bd
       -0.0217744 -0.048521973 0.026726315 -0.03963431
000370 40 c9 be bb 80 eb c8 bb 16 5e eb bc 2c 36 94 3c
       -0.0058223307 -0.0061315894 -0.028731387 0.018092237
000380 48 5c e9 bc c9 33 10 bd bd e5 04 bd f7 b9 8a 3c
       -0.028486386 -0.035205636 -0.032445658 0.016934378
000390 ba 05 da 3c 5f 4e 32 bd 2c 5f 80 3c 94 cc fb bc
       0.026614059 -0.04353177 0.015670381 -0.030737199
0003a0 cc 52 b1 bb 45 50 bb bc a8 9c dd 3c 70 6c 3c bd
       -0.0054114815 -0.022865424 0.027052239 -0.04600185
0003b0 c8 b4 67 b9 0c 6f 0d 3c 73 a9 cb 38 ae 09 ff bc
       -0.00022097223 0.008632433 9.711357e-05 -0.031132545
0003c0 68 23 5f 3b 81 a7 03 bd 84 af 28 bd 27 78 4a bc
       0.0034048203 -0.032142166 -0.04118301 -0.012357748
0003d0 4c 0f 42 3b 7d d6 22 bd 97 6a 0e bd 7a 12 dc 3c
       0.0029611168 -0.039755333 -0.03476962 0.026864279
0003e0 eb 21 ee 3c b9 2e 2e bd d0 a4 6d 3c b5 ba e3 bc
       0.029068908 -0.042525027 0.014504626 -0.02779899
0003f0 ef b9 55 bc 82 3c be bb 45 81 81 3c 3f c9 dc bc
       -0.013044818 -0.005805553 0.01580871 -0.02695143

bias f4 [128]
000000 6f 37 86 3c 88 c5 08 3d 7d 4b 0d bd c6 a4 2c 3c
       0.016383855 0.033391505 -0.03449582 0.010537332
000010 4c a7 85 bc 3b 4b 5a bc 67 7d 6e 3d 16 3f 69 bb
       -0.016315125 -0.0133236 0.05822506 -0.003559058
000020 2a 10 6a 3c 5c 79 78 3c 71 30 6b bc 00 d3 17 3c
       0.01428608 0.015165653 -0.014354811 0.009266615
000030 87 8d bb 3b fe 06 74 3d d1 c0 2c bc 3e 23 26 3d
       0.0057236585 0.05957698 -0.010544018 0.040560953
000040 8e 8c fd bc 98 72 ce bb 7b 15 32 bd 5f 58 f1 3c
       -0.03095081 -0.0063002817 -0.043477517 0.029461084
000050 c2 09 53 3c 38 bb 1a 3d e9 fe 68 bc c0 e3 8e 3c
       0.012880744 0.037776202 -0.014220932 0.017442584
000060 96 80 ed bc 10 78 23 bd a7 43 ce b9 aa ef a7 bb
       -0.028991979 -0.039909422 -0.00039341787 -0.0051250057
000070 e7 64 41 bc 56 bb ac 3c 73 2c e3 bc 67 77 ac 3b
       -0.011803842 0.021085422 -0.027731156 0.0052632573
000080 e9 11 65 3d e8 74 03 3d 4c d8 8d 3b 98 82 1f bd
       0.055925284 0.032093912 0.004328763 -0.038942903
000090 f0 5f a6 bc cc 6f 3c 3d 79 e8 5d bc cd 32 a2 3c
       -0.020309418 0.046005055 -0.013544195 0.019799614
0000a0 f9 d9 3c bd 1a f5 83 3d f1 c5 5c 3d b7 6c af 3c
       -0.046106312 0.06443234 0.05389971 0.021414144
0000b0 9d a2 ed bb 2f 99 b7 3b e3 e9 d9 39 20 ce 19 bd
       -0.007252051 0.0056029777 0.00041563725 -0.03755009
0000c0 8f 22 0b 3d 2e c6 b5 bb 23 03 25 3d 71 f4 b8 3c
       0.033968505 -0.0055473065 0.040286195 0.022577496
0000d0 97 14 4d bd fa d3 d7 3c 8b 47 12 3d 3c 8f 41 bd
       -0.050068464 0.026346195 0.03571276 -0.04725574
0000e0 f3 14 25 3c 53 e8 c7 bc 46 dd 22 3c 17 88 cb 3c
       0.010075795 -0.024402773 0.009940451 0.024845166
0000f0 39 8b 96 3c 49 37 a3 3b 6f 15 a0 bb 8a 11 8d 3d
       0.018376933 0.0049809557 -0.0048853676 0.06888111
000100 c0 a4 1a bc 48 16 37 3d 5e b5 99 ba 93 78 8a 3c
       -0.0094386935 0.044698983 -0.0011727025 0.016903197
000110 68 a2 b4 3c cc 97 52 bc 53 90 03 bb 18 78 29 bd
       0.022050098 -0.012853574 -0.0020075038 -0.041374296
000120 73 f7 ba 3c 9a fc fb 3c 6f f9 9a bb ec c8 6a 3c
       0.022823071 0.030760098 -0.004729442 0.01433013
000130 f7 29 ce 3c d7 ce 6e 3c 1d 3f cc 3c c8 b8 8d 3c
       0.025166495 0.014575682 0.024932439 0.017300025
000140 cd 1c 0b bd fd 6a 69 bd c3 8e 6a 3c e8 21 94 3c
       -0.033963013 -0.056986798 0.014316264 0.018082574
000150 ab fa 0f 3c 39 4c d3 bc a1 5f a1 3b fa 6f f5 bc
       0.008787791 -0.025793182 0.00492473 -0.029960621
000160 d1 c0 26 bd 57 30 ab bc c5 2f 86 3b 5d 93 3e bd
       -0.040711228 -0.020897074 0.00409505 -0.046527255
000170 a0 3c 0f 3d 23 02 00 3d dc 1e 26 3d 65 ad 32 bb
       0.034969926 0.031252038 0.040556774 -0.0027263996
000180 8f 13 ce 3c 7b 20 d2 3c 30 98 91 bc 4e 22 9e 3c
       0.02515581 0.025650254 -0.017772764 0.019303467
000190 5a f7 1a 3d 00 92 5a 3d 24 45 3b bb 5e 4b b0 bb
       0.03783355 0.053361893 -0.0028575147 -0.005380078
0001a0 81 b8 f5 3c ad 22 a1 3c b7 d6 0b bc 23 8e 24 bc
       0.029995205 0.019669855 -0.008535079 -0.010043654
0001b0 41 6b cd ba 69 2b 9d bc 65 3e 20 bd 18 40 16 3d
       -0.0015672223 -0.019185739 -0.039122004 0.03668222
0001c0 47 78 34 bd 85 07 14 3d 60 22 8d 3c 9b 80 b9 3c
       -0.044060018 0.036139984 0.017228305 0.022644332
0001d0 ff 12 d0 3c cc 06 f5 3b a5 2d 69 bc 4a 86 0f 3c
       0.025399683 0.007477617 -0.014232074 0.008760044
0001e0 e4 be 89 bc 38 2e 02 bd 33 3f 41 bd 94 04 ee 3c
       -0.016814657 -0.03178236 -0.047179412 0.029054917
0001f0 a5 11 a6 3b a7 eb b5 3c 30 d8 cb 3c 3b 4a 0a bd
       0.0050680214 0.022207094 0.02488336 -0.033762198

weight f4 [10, 128]
000000 8b 4b a1 bc 4f ce b2 3d 8a bd 88 3d 94 8a 8d bd
       -0.019689342 0.087307565 0.06676777 -0.06911197
000010 db 11 be bd 1a 2d a1 bd 2f 3c c0 3d 08 ed df 3b
       -0.092807494 -0.078699306 0.09386479 0.0068336762
000020 1f 11 48 3d 11 db 1f 3d 02 8e 9e bb be a7 68 bc
       0.048844453 0.039027277 -0.004838706 -0.014200149
000030 fd 89 f6 3b 7c dc 88 3d 1a 5e db 3b 74 29 b3 3d
       0.0075237737 0.06682679 0.0066945674 0.08748141
000040 27 8f 0f 3d 18 63 a3 3d 3b ff 71 3d c0 fa c4 3c
       0.03504863 0.07977885 0.059081297 0.024045348
000050 b5 14 02 bd 17 33 92 3d 3d 3e a3 3d df 30 db bb
       -0.03175803 0.07138651 0.079708554 -0.0066891755
000060 3a bc 75 ba 76 00 99 3c f0 f4 35 bd f5 5f cf 3c
       -0.0009374056 0.018676978 -0.044423044 0.02531431
000070 0f c8 0d 3c 08 49 18 3d b4 d7 89 3d fe da df bc
       0.008653655 0.037179023 0.06730595 -0.027326103
000080 72 ea 8e 3d 12 a5 c2 bc a8 51 dd bd 7d 06 51 bd
       0.06978311 -0.023760352 -0.1080659 -0.05103158
000090 40 90 03 3b 7b a2 b9 3d c8 ce 71 3c cf ca 96 bd
       0.0020074993 0.09064194 0.014758773 -0.073629014
0000a0 b2 6d a8 bd 28 ec 43 3d 25 52 8f 3d 0f 10 e1 bc
       -0.08224048 0.047832638 0.0699809 -0.027473478
0000b0 a0 b8 a7 3d 44 30 c0 bd cc 45 ba bc 6d 9b 62 3c
       0.08189511 -0.09384206 -0.02273836 0.013831002
0000c0 47 58 e3 3d d6 a4 d7 bd fe d6 7f bc 77 0b 30 bd
       0.11100822 -0.10529487 -0.015615223 -0.042979684
0000d0 8b 6a 5f 3d a6 69 84 bd 05 f7 39 bd cb bc 54 bd
       0.054544967 -0.06465463 -0.04540159 -0.05193786
0000e0 b7 ed c0 3b b7 81 77 3c 77 0f 5e bd ed 67 6c 3d
       0.005887713 0.01510661 -0.054213967 0.0577163
0000f0 b2 f3 36 3d f5 a4 a1 bd f8 29 97 3c 81 84 b8 3d
       0.044666 -0.07892791 0.01845263 0.09009648
000100 0e 2d 8d 3d 3a d7 94 3d 38 b0 ad 3d 8a 2d 88 bd
       0.06893359 0.07267614 0.08480877 -0.06649311
000110 21 32 09 3d d0 f2 62 bc 08 6f 06 3d 27 b9 9a bc
       0.033495072 -0.013851836 0.03282073 -0.018887116
000120 bf 1d a1 bd df bc 81 bd 99 0e 44 bc 65 6d ae 3d
       -0.07867002 -0.063348524 -0.011966371 0.08516959
000130 7c 86 a0 3c f8 c5 82 3d 4a a7 d9 3d bf e6 93 bd
       0.019595377 0.06385416 0.10627611 -0.07221746
000140 5f e2 94 bd 25 21 a0 bb 41 d1 98 bd 6c 36 94 bd
       -0.07269739 -0.0048867636 -0.07461787 -0.07236943
000150 83 2d 96 3d 14 14 56 3c 2f 61 ba 3d 3f 70 27 bd
       0.073328994 0.01306631 0.091005675 -0.04087853
000160 7e 9c 4a bd 3d 65 cd 3c aa 97 1b 3d 5d 75 6a bd
       -0.04946565 0.025072688 0.037986435 -0.057240833
000170 9f 07 b8 3d 86 6e be 3d 49 ab 04 bd 6b 00 66 bd
       0.089858286 0.092984244 -0.032389913 -0.056152742
000180 17 8c 3b bc 56 71 c3 bc 51 f4 b3 3d e6 ff df 3b
       -0.011446974 -0.023857754 0.08786834 0.0068359254
000190 5d 7f 8b bc 2b ae 9f 3d 3a 28 fc 3b bc 67 94 bd
       -0.017028505 0.07796892 0.007695225 -0.07246348
0001a0 89 9f 2d 3d fc 99 98 3d fc ad 85 bd db 3d 77 3d
       0.042388473 0.07451245 -0.065273255 0.060361724
0001b0 be 8a 4d bd 8e 6b 59 bd bf 91 9d bd 56 e5 bf 3d
       -0.050181143 -0.053081088 -0.076938145 0.09369914
0001c0 14 cb 92 bd 27 9f cc 3d 0f 4e ef bb db 09 7a bd
       -0.0716764 0.099912934 -0.0073030065 -0.061044555
0001d0 47 58 d8 3c de e5 c2 3d 59 51 8a 3c 22 f5 5d bd
       0.026409281 0.095165 0.016884493 -0.054188855
0001e0 66 d2 bc 3c 61 9a 22 bc 16 4a 9b bd 45 18 7c 3d
       0.023049545 -0.009924502 -0.0758249 0.061546583
0001f0 43 52 40 bd 9e fe 1d 3d f3 19 52 3d ca d0 a9 3d
       -0.04695345 0.0385729 0.05129428 0.082917765
000200 1c 88 a4 3c 41 24 19 3d 27 f9 08 bd 2a 7b ca bc
       0.020084433 0.03738809 -0.033440735 -0.024716932
000210 29 a5 d9 bc ca 0d 48 3d 75 85 7a 3b 0d 7c 85 3c
       -0.026568012 0.048841275 0.003822652 0.016294504
000220 fb 85 91 bd d0 f3 3b bd 51 85 7d bd 96 a7 2a 3d
       -0.07105633 -0.045886815 -0.06189472 0.04166373
000230 ad bb 8e 3b 6b 5b 11 3d a6 e8 fd bc 3e 85 06 3d
       0.004355869 0.035487574 -0.030994724 0.032841913
000240 37 4e 46 3d 3c ba 0c bd 8e db 98 3d 35 5f 96 3c
       0.048414435 -0.034357294 0.07463752 0.018355945
000250 6b b9 81 bd dd cc 53 3a 71 b2 9e 3d 2d 6e 81 3d
       -0.06334194 0.0008079538 0.07748879 0.063198425
000260 51 c4 81 3c fc a3 3f bb 60 f2 ee 3c 04 38 cb bc
       0.015840681 -0.002924203 0.029168308 -0.024806984
000270 a1 8e 03 bd 34 ff c2 3d 90 58 27 bd 1f 72 7a bd
       -0.032118443 0.095213324 -0.040855944 -0.06114399
000280 12 9a 99 3d 79 cb 02 bd b3 cf d0 3d 0b 7a 5d bd
       0.0750009 -0.031932328 0.101958655 -0.054071467
000290 b7 d3 af 3d 71 03 c0 3d 6e f4 97 bc 1e ad 83 bd
       0.08585303 0.093756564 -0.01854917 -0.06429504
0002a0 92 30 47 bd 33 1b de bc 64 e8 63 3d 5c d3 9b bd
       -0.048630305 -0.027112579 0.055641547 -0.07608673
0002b0 69 af 7c bb ba ce c7 3d aa 14 ed 3b 38 86 d9 bc
       -0.00385567 0.09756227 0.0072351294 -0.026553258
0002c0 4f 03 a4 bd d9 3c 0b 3d 00 f9 7b 3d b3 fc 6d 3d
       -0.080084436 0.033993576 0.06151676 0.05810232
0002d0 03 ae a9 3d 14 44 bd 3d 62 1e b6 3d 7d 08 99 3d
       0.08285143 0.092415005 0.08892514 0.07472322
0002e0 5f 5e b5 3d a0 14 fb 3c 23 7b a0 bd 13 5f ab bc
       0.088558905 0.030649483 -0.078359865 -0.020919358
0002f0 13 c0 0a bd 5d e6 17 bb 06 ef 98 bd 5e 3c 87 3c
       -0.033874582 -0.0023178079 -0.07467465 0.016508278
000300 34 00 ce 3d dc 12 38 bc f9 9f 96 3d 9e 26 a4 bb
       0.100586325 -0.011234965 0.07354731 -0.0050094863
000310 4e f8 9f bd 93 b3 ac 3c e7 b3 2e bd fa 1d a8 3d
       -0.07811032 0.021081721 -0.042652037 0.082088426
000320 1b 35 7a 3d bb 5a 21 bd 65 f2 f3 bb 28 49 9a bd
       0.0610858 -0.039393168 -0.007444667 -0.07533485
000330 84 f2 72 3d 6a 35 91 bd 6a e6 53 bc 22 6d 46 bd
       0.059313312 -0.07090266 -0.012933353 -0.04844392
000340 23 2f a8 ba d3 eb 27 bd 38 ff 8d bc af 79 9a bd
       -0.0012831431 -0.040996384 -0.017333612 -0.075427406
000350 65 75 12 bd 60 d3 a0 3d 18 b2 bb 3d fb b1 bb 3d
       -0.035756487 0.078528166 0.09164828 0.091648065
000360 9b ca 8b 3d d8 67 85 3d a4 39 4a bd 42 85 5d 3d
       0.06825753 0.06513947 -0.049371377 0.054082163
000370 58 11 7d 3d 94 1e 01 3d ea b6 ea 3c 73 60 86 3d
       0.06178412 0.031523302 0.028651673 0.06561365
000380 0a 96 39 3d e2 39 f1 3c 63 65 c3 3d 5c 2b 3e 3d
       0.045309104 0.029446546 0.09540822 0.04642807
000390 ae 58 61 3d 64 8a b9 3d 1d fb d1 3d 17 b7 9d bc
       0.055016212 0.09059599 0.10252974 -0.019252343
0003a0 0a 8c 00 bd 66 9a 6b 3c 61 39 a1 bd 01 32 21 bd
       -0.03138355 0.014380073 -0.07872272 -0.039354328
0003b0 f8 c1 e1 ba 4d cc b1 3d 68 43 9c bc e2 42 70 bc
       -0.0017223945 0.086815454 -0.01907511 -0.014664384
0003c0 1a d2 8b bd 4f 7e 1d bd 87 b4 63 3b d7 47 3a bd
       -0.06827183 -0.038450535 0.0034745054 -0.045478668
0003d0 24 3c a1 bc 91 05 1d 3d d0 04 1f bc c9 96 fe 3b
       -0.019681998 0.038335387 -0.009705737 0.00776944
0003e0 5b b0 3f bd 7d 52 8a bc 89 4f 12 3d 9b 8e 8b bd
       -0.046799045 -0.016885037 0.035720382 -0.06814309
0003f0 5e 63 77 bd 3a 6d 39 3d f6 93 52 3d cb 5a 4a bd
       -0.0603975 0.045270182 0.051410638 -0.049402993

bias f4 [10]
000000 b1 2b cb 3c 55 27 7b 3d ea f8 d9 bc 9e c7 2c 3d
       0.024801107 0.061316807 -0.02660795 0.042182557
000010 91 af 8d bd 80 ef 27 bb 7d a9 52 3d 8a 87 07 3c
       -0.06918252 -0.002562493 0.051431168 0.008272061
000020 9d 0d 1a bd 1c a7 6e bd
       -0.03761064 -0.058264837
